
Using backend: pytorch
2021/07/04 10:28:51: [ EdgeMean(
  (g_v_enc): Embedding(64, 12)
  (g_e_enc): Embedding(256, 16)
  (g_vl_enc): Embedding(16, 8)
  (g_el_enc): Embedding(16, 8)
  (p_v_enc): Embedding(8, 6)
  (p_e_enc): Embedding(8, 6)
  (p_vl_enc): Embedding(8, 6)
  (p_el_enc): Embedding(8, 6)
  (vl_flt): MaxGatedFilterNet()
  (el_flt): MaxGatedFilterNet()
  (g_vl_emb): EquivariantEmbedding(
    (emb_layer): Linear(in_features=8, out_features=128, bias=False)
  )
  (g_el_emb): EquivariantEmbedding(
    (emb_layer): Linear(in_features=8, out_features=128, bias=False)
  )
  (p_vl_emb): EquivariantEmbedding(
    (emb_layer): Linear(in_features=6, out_features=128, bias=False)
  )
  (p_el_emb): EquivariantEmbedding(
    (emb_layer): Linear(in_features=6, out_features=128, bias=False)
  )
  (g_net): ModuleList(
    (graph_rgc0): MeanN(
      (gat): Mean_Agg(
        (act): LeakyReLU(negative_slope=0.18181818181818182)
      )
      (emb): EdgeEmbedding_F3_4(
        (act): LeakyReLU(negative_slope=0.18181818181818182)
        (linear1): Linear(in_features=384, out_features=384, bias=True)
        (linear2): Linear(in_features=384, out_features=384, bias=True)
      )
    )
    (graph_rgc1): MeanN(
      (gat): Mean_Agg(
        (act): LeakyReLU(negative_slope=0.18181818181818182)
      )
      (emb): EdgeEmbedding_F3_4(
        (act): LeakyReLU(negative_slope=0.18181818181818182)
        (linear1): Linear(in_features=384, out_features=384, bias=True)
        (linear2): Linear(in_features=384, out_features=384, bias=True)
      )
    )
    (graph_rgc2): MeanN(
      (gat): Mean_Agg(
        (act): LeakyReLU(negative_slope=0.18181818181818182)
      )
      (emb): EdgeEmbedding_F3_4(
        (act): LeakyReLU(negative_slope=0.18181818181818182)
        (linear1): Linear(in_features=384, out_features=384, bias=True)
        (linear2): Linear(in_features=384, out_features=384, bias=True)
      )
    )
  )
  (p_net): ModuleList(
    (graph_rgc0): MeanN(
      (gat): Mean_Agg(
        (act): LeakyReLU(negative_slope=0.18181818181818182)
      )
      (emb): EdgeEmbedding_F3_4(
        (act): LeakyReLU(negative_slope=0.18181818181818182)
        (linear1): Linear(in_features=384, out_features=384, bias=True)
        (linear2): Linear(in_features=384, out_features=384, bias=True)
      )
    )
    (graph_rgc1): MeanN(
      (gat): Mean_Agg(
        (act): LeakyReLU(negative_slope=0.18181818181818182)
      )
      (emb): EdgeEmbedding_F3_4(
        (act): LeakyReLU(negative_slope=0.18181818181818182)
        (linear1): Linear(in_features=384, out_features=384, bias=True)
        (linear2): Linear(in_features=384, out_features=384, bias=True)
      )
    )
    (graph_rgc2): MeanN(
      (gat): Mean_Agg(
        (act): LeakyReLU(negative_slope=0.18181818181818182)
      )
      (emb): EdgeEmbedding_F3_4(
        (act): LeakyReLU(negative_slope=0.18181818181818182)
        (linear1): Linear(in_features=384, out_features=384, bias=True)
        (linear2): Linear(in_features=384, out_features=384, bias=True)
      )
    )
  )
  (predict_net): SumPredictNet(
    (act): LeakyReLU(negative_slope=0.18181818181818182)
    (drop): Dropout(p=0.2, inplace=False)
    (p_layer): Linear(in_features=422, out_features=128, bias=True)
    (g_layer): Linear(in_features=450, out_features=128, bias=True)
    (pred_layer1): Linear(in_features=516, out_features=128, bias=True)
    (pred_layer2): Linear(in_features=132, out_features=1, bias=True)
  )
  (g_linear): Linear(in_features=384, out_features=384, bias=True)
  (p_linear): Linear(in_features=384, out_features=384, bias=True)
) ]
2021/07/04 10:28:51: [ num of parameters: 1364485 ]
2021/07/04 10:28:51: [ loading data from pt... ]
2021/07/04 10:29:58: [ data (data_type: train, len: 100000) generated ]
2021/07/04 10:29:58: [ data_loader (data_type: train, len: 98, batch_size: 1024) generated ]
2021/07/04 10:30:12: [ data (data_type: dev  , len: 10000) generated ]
2021/07/04 10:30:12: [ data_loader (data_type: dev  , len: 10, batch_size: 1024) generated ]
…
